…
            " Layer (type)                   Output Shape         Param #     Connected to                     \n",
            "==================================================================================================\n",
            " input_6 (InputLayer)           [(None, 150, 150, 3  0           []                               \n",
            "                                )]                                                                \n",
            "                                                                                                  \n",
            " conv2d_197 (Conv2D)            (None, 75, 75, 32)   864         ['input_6[0][0]']                \n",
            "                                                                                                  \n",
            " batch_normalization_147 (Batch  (None, 75, 75, 32)  128         ['conv2d_197[0][0]']             \n",
            " Normalization)                                                                                   \n",
            "                                                                                                  \n",
            " swish_147 (Swish)              (None, 75, 75, 32)   0           ['batch_normalization_147[0][0]']\n",
            "                                                                                                  \n",
            " depthwise_conv2d_48 (Depthwise  (None, 75, 75, 32)  288         ['swish_147[0][0]']              \n",
            " Conv2D)                                                                                          \n",
            "                                                                                                  \n",
            " batch_normalization_148 (Batch  (None, 75, 75, 32)  128         ['depthwise_conv2d_48[0][0]']    \n",
            " Normalization)                                                                                   \n",
            "                                                                                                  \n",
            " swish_148 (Swish)              (None, 75, 75, 32)   0           ['batch_normalization_148[0][0]']\n",
            "                                                                                                  \n",
            " lambda_48 (Lambda)             (None, 1, 1, 32)     0           ['swish_148[0][0]']              \n",
            "                                                                                                  \n",
            " conv2d_198 (Conv2D)            (None, 1, 1, 8)      264         ['lambda_48[0][0]']              \n",
            "                                                                                                  \n",
            " swish_149 (Swish)              (None, 1, 1, 8)      0           ['conv2d_198[0][0]']             \n",
            "                                                                                                  \n",
            " conv2d_199 (Conv2D)            (None, 1, 1, 32)     288         ['swish_149[0][0]']              \n",
            "                                                                                                  \n",
            " activation_48 (Activation)     (None, 1, 1, 32)     0           ['conv2d_199[0][0]']             \n",
            "                                                                                                  \n",
            " multiply_48 (Multiply)         (None, 75, 75, 32)   0           ['activation_48[0][0]',          \n",
            "                                                                  'swish_148[0][0]']              \n",
            "                                                                                                  \n",
            " conv2d_200 (Conv2D)            (None, 75, 75, 16)   512         ['multiply_48[0][0]']            \n",
            "                                                                                                  \n",
            " batch_normalization_149 (Batch  (None, 75, 75, 16)  64          ['conv2d_200[0][0]']             \n",
            " Normalization)                                                                                   \n",
            "                                                                                                  \n",
            " conv2d_201 (Conv2D)            (None, 75, 75, 96)   1536        ['batch_normalization_149[0][0]']\n",
            "                                                                                                  \n",
            " batch_normalization_150 (Batch  (None, 75, 75, 96)  384         ['conv2d_201[0][0]']             \n",
            " Normalization)                                                                                   \n",
            "                                                                                                  \n",
            " swish_150 (Swish)              (None, 75, 75, 96)   0           ['batch_normalization_150[0][0]']\n",
            "                                                                                                  \n",
            " depthwise_conv2d_49 (Depthwise  (None, 38, 38, 96)  864         ['swish_150[0][0]']              \n",
            " Conv2D)                                                                                          \n",
            "                                                                                                  \n",
            " batch_normalization_151 (Batch  (None, 38, 38, 96)  384         ['depthwise_conv2d_49[0][0]']    \n",
            " Normalization)                                                                                   \n",
            "                                                                                                  \n",
            " swish_151 (Swish)              (None, 38, 38, 96)   0           ['batch_normalization_151[0][0]']\n",
            "                                                                                                  \n",
            " lambda_49 (Lambda)             (None, 1, 1, 96)     0           ['swish_151[0][0]']              \n",
            "                                                                                                  \n",
            " conv2d_202 (Conv2D)            (None, 1, 1, 4)      388         ['lambda_49[0][0]']              \n",
            "                                                                                                  \n",
            " swish_152 (Swish)              (None, 1, 1, 4)      0           ['conv2d_202[0][0]']             \n",
            "                                                                                                  \n",
            " conv2d_203 (Conv2D)            (None, 1, 1, 96)     480         ['swish_152[0][0]']              \n",
            "                                                                                                  \n",
            " activation_49 (Activation)     (None, 1, 1, 96)     0           ['conv2d_203[0][0]']             \n",
            "                                                                                                  \n",
            " multiply_49 (Multiply)         (None, 38, 38, 96)   0           ['activation_49[0][0]',          \n",
            "                                                                  'swish_151[0][0]']              \n",
            "                                                                                                  \n",
            " conv2d_204 (Conv2D)            (None, 38, 38, 24)   2304        ['multiply_49[0][0]']            \n",
            "                                                                                                  \n",
            " batch_normalization_152 (Batch  (None, 38, 38, 24)  96          ['conv2d_204[0][0]']             \n",
            " Normalization)                                                                                   \n",
            "                                                                                                  \n",
            " conv2d_205 (Conv2D)            (None, 38, 38, 144)  3456        ['batch_normalization_152[0][0]']\n",
            "                                                                                                  \n",
            " batch_normalization_153 (Batch  (None, 38, 38, 144)  576        ['conv2d_205[0][0]']             \n",
            " Normalization)                                                                                   \n",
            "                                                                                                  \n",
            " swish_153 (Swish)              (None, 38, 38, 144)  0           ['batch_normalization_153[0][0]']\n",
            "                                                                                                  \n",
            " depthwise_conv2d_50 (Depthwise  (None, 38, 38, 144)  1296       ['swish_153[0][0]']              \n",
            " Conv2D)                                                                                          \n",
            "                                                                                                  \n",
            " batch_normalization_154 (Batch  (None, 38, 38, 144)  576        ['depthwise_conv2d_50[0][0]']    \n",
            " Normalization)                                                                                   \n",
            "                                                                                                  \n",
            " swish_154 (Swish)              (None, 38, 38, 144)  0           ['batch_normalization_154[0][0]']\n",
            "                                                                                                  \n",
            " lambda_50 (Lambda)             (None, 1, 1, 144)    0           ['swish_154[0][0]']              \n",
            "                                                                                                  \n",
            " conv2d_206 (Conv2D)            (None, 1, 1, 6)      870         ['lambda_50[0][0]']              \n",
            "                                                                                                  \n",
            " swish_155 (Swish)              (None, 1, 1, 6)      0           ['conv2d_206[0][0]']             \n",
            "                                                                                                  \n",
            " conv2d_207 (Conv2D)            (None, 1, 1, 144)    1008        ['swish_155[0][0]']              \n",
            "                                                                                                  \n",
            " activation_50 (Activation)     (None, 1, 1, 144)    0           ['conv2d_207[0][0]']             \n",
            "                                                                                                  \n",
            " multiply_50 (Multiply)         (None, 38, 38, 144)  0           ['activation_50[0][0]',          \n",
            "                                                                  'swish_154[0][0]']              \n",
            "                                                                                                  \n",
            " conv2d_208 (Conv2D)            (None, 38, 38, 24)   3456        ['multiply_50[0][0]']            \n",
            "                                                                                                  \n",
            " batch_normalization_155 (Batch  (None, 38, 38, 24)  96          ['conv2d_208[0][0]']             \n",
            " Normalization)                                                                                   \n",
            "                                                                                                  \n",
            " drop_connect_27 (DropConnect)  (None, 38, 38, 24)   0           ['batch_normalization_155[0][0]']\n",
            "                                                                                                  \n",
            " add_27 (Add)                   (None, 38, 38, 24)   0           ['drop_connect_27[0][0]',        \n",
            "                                                                  'batch_normalization_152[0][0]']\n",
            "                                                                                                  \n",
            " conv2d_209 (Conv2D)            (None, 38, 38, 144)  3456        ['add_27[0][0]']                 \n",
            "                                                                                                  \n",
            " batch_normalization_156 (Batch  (None, 38, 38, 144)  576        ['conv2d_209[0][0]']             \n",
            " Normalization)                                                                                   \n",
            "                                                                                                  \n",
            " swish_156 (Swish)              (None, 38, 38, 144)  0           ['batch_normalization_156[0][0]']\n",
            "                                                                                                  \n",
            " depthwise_conv2d_51 (Depthwise  (None, 19, 19, 144)  3600       ['swish_156[0][0]']              \n",
            " Conv2D)                                                                                          \n",
            "                                                                                                  \n",
            " batch_normalization_157 (Batch  (None, 19, 19, 144)  576        ['depthwise_conv2d_51[0][0]']    \n",
            " Normalization)                                                                                   \n",
            "                                                                                                  \n",
            " swish_157 (Swish)              (None, 19, 19, 144)  0           ['batch_normalization_157[0][0]']\n",
            "                                                                                                  \n",
            " lambda_51 (Lambda)             (None, 1, 1, 144)    0           ['swish_157[0][0]']              \n",
            "                                                                                                  \n",
            " conv2d_210 (Conv2D)            (None, 1, 1, 6)      870         ['lambda_51[0][0]']              \n",
            "                                                                                                  \n",
            " swish_158 (Swish)              (None, 1, 1, 6)      0           ['conv2d_210[0][0]']             \n",
            "                                                                                                  \n",
            " conv2d_211 (Conv2D)            (None, 1, 1, 144)    1008        ['swish_158[0][0]']              \n",
            "                                                                                                  \n",
            " activation_51 (Activation)     (None, 1, 1, 144)    0           ['conv2d_211[0][0]']             \n",
            "                                                                                                  \n",
            " multiply_51 (Multiply)         (None, 19, 19, 144)  0           ['activation_51[0][0]',          \n",
            "                                                                  'swish_157[0][0]']              \n",
            "                                                                                                  \n",
            " conv2d_212 (Conv2D)            (None, 19, 19, 40)   5760        ['multiply_51[0][0]']            \n",
            "                                                                                                  \n",
            " batch_normalization_158 (Batch  (None, 19, 19, 40)  160         ['conv2d_212[0][0]']             \n",
            " Normalization)                                                                                   \n",
            "                                                                                                  \n",
            " conv2d_213 (Conv2D)            (None, 19, 19, 240)  9600        ['batch_normalization_158[0][0]']\n",
            "                                                                                                  \n",
            " batch_normalization_159 (Batch  (None, 19, 19, 240)  960        ['conv2d_213[0][0]']             \n",
            " Normalization)                                                                                   \n",
            "                                                                                                  \n",
            " swish_159 (Swish)              (None, 19, 19, 240)  0           ['batch_normalization_159[0][0]']\n",
            "                                                                                                  \n",
            " depthwise_conv2d_52 (Depthwise  (None, 19, 19, 240)  6000       ['swish_159[0][0]']              \n",
            " Conv2D)                                                                                          \n",
            "                                                                                                  \n",
            " batch_normalization_160 (Batch  (None, 19, 19, 240)  960        ['depthwise_conv2d_52[0][0]']    \n",
            " Normalization)                                                                                   \n",
            "                                                                                                  \n",
            " swish_160 (Swish)              (None, 19, 19, 240)  0           ['batch_normalization_160[0][0]']\n",
            "                                                                                                  \n",
            " lambda_52 (Lambda)             (None, 1, 1, 240)    0           ['swish_160[0][0]']              \n",
            "                                                                                                  \n",
            " conv2d_214 (Conv2D)            (None, 1, 1, 10)     2410        ['lambda_52[0][0]']              \n",
            "                                                                                                  \n",
            " swish_161 (Swish)              (None, 1, 1, 10)     0           ['conv2d_214[0][0]']             \n",
            "                                                                                                  \n",
            " conv2d_215 (Conv2D)            (None, 1, 1, 240)    2640        ['swish_161[0][0]']              \n",
            "                                                                                                  \n",
            " activation_52 (Activation)     (None, 1, 1, 240)    0           ['conv2d_215[0][0]']             \n",
            "                                                                                                  \n",
            " multiply_52 (Multiply)         (None, 19, 19, 240)  0           ['activation_52[0][0]',          \n",
            "                                                                  'swish_160[0][0]']              \n",
            "                                                                                                  \n",
            " conv2d_216 (Conv2D)            (None, 19, 19, 40)   9600        ['multiply_52[0][0]']            \n",
            "                                                                                                  \n",
            " batch_normalization_161 (Batch  (None, 19, 19, 40)  160         ['conv2d_216[0][0]']             \n",
            " Normalization)                                                                                   \n",
            "                                                                                                  \n",
            " drop_connect_28 (DropConnect)  (None, 19, 19, 40)   0           ['batch_normalization_161[0][0]']\n",
            "                                                                                                  \n",
            " add_28 (Add)                   (None, 19, 19, 40)   0           ['drop_connect_28[0][0]',        \n",
            "                                                                  'batch_normalization_158[0][0]']\n",
            "                                                                                                  \n",
            " conv2d_217 (Conv2D)            (None, 19, 19, 240)  9600        ['add_28[0][0]']                 \n",
            "                                                                                                  \n",
            " batch_normalization_162 (Batch  (None, 19, 19, 240)  960        ['conv2d_217[0][0]']             \n",
            " Normalization)                                                                                   \n",
            "                                                                                                  \n",
            " swish_162 (Swish)              (None, 19, 19, 240)  0           ['batch_normalization_162[0][0]']\n",
            "                                                                                                  \n",
            " depthwise_conv2d_53 (Depthwise  (None, 10, 10, 240)  2160       ['swish_162[0][0]']              \n",
            " Conv2D)                                                                                          \n",
            "                                                                                                  \n",
            " batch_normalization_163 (Batch  (None, 10, 10, 240)  960        ['depthwise_conv2d_53[0][0]']    \n",
            " Normalization)                                                                                   \n",
            "                                                                                                  \n",
            " swish_163 (Swish)              (None, 10, 10, 240)  0           ['batch_normalization_163[0][0]']\n",
            "                                                                                                  \n",
            " lambda_53 (Lambda)             (None, 1, 1, 240)    0           ['swish_163[0][0]']              \n",
            "                                                                                                  \n",
            " conv2d_218 (Conv2D)            (None, 1, 1, 10)     2410        ['lambda_53[0][0]']              \n",
            "                                                                                                  \n",
            " swish_164 (Swish)              (None, 1, 1, 10)     0           ['conv2d_218[0][0]']             \n",
            "                                                                                                  \n",
            " conv2d_219 (Conv2D)            (None, 1, 1, 240)    2640        ['swish_164[0][0]']              \n",
            "                                                                                                  \n",
            " activation_53 (Activation)     (None, 1, 1, 240)    0           ['conv2d_219[0][0]']             \n",
            "                                                                                                  \n",
            " multiply_53 (Multiply)         (None, 10, 10, 240)  0           ['activation_53[0][0]',          \n",
            "                                                                  'swish_163[0][0]']              \n",
            "                                                                                                  \n",
            " conv2d_220 (Conv2D)            (None, 10, 10, 80)   19200       ['multiply_53[0][0]']            \n",
            "                                                                                                  \n",
            " batch_normalization_164 (Batch  (None, 10, 10, 80)  320         ['conv2d_220[0][0]']             \n",
            " Normalization)                                                                                   \n",
            "                                                                                                  \n",
            " conv2d_221 (Conv2D)            (None, 10, 10, 480)  38400       ['batch_normalization_164[0][0]']\n",
            "                                                                                                  \n",
            " batch_normalization_165 (Batch  (None, 10, 10, 480)  1920       ['conv2d_221[0][0]']             \n",
            " Normalization)                                                                                   \n",
            "                                                                                                  \n",
            " swish_165 (Swish)              (None, 10, 10, 480)  0           ['batch_normalization_165[0][0]']\n",
            "                                                                                                  \n",
            " depthwise_conv2d_54 (Depthwise  (None, 10, 10, 480)  4320       ['swish_165[0][0]']              \n",
            " Conv2D)                                                                                          \n",
            "                                                                                                  \n",
            " batch_normalization_166 (Batch  (None, 10, 10, 480)  1920       ['depthwise_conv2d_54[0][0]']    \n",
            " Normalization)                                                                                   \n",
            "                                                                                                  \n",
            " swish_166 (Swish)              (None, 10, 10, 480)  0           ['batch_normalization_166[0][0]']\n",
            "                                                                                                  \n",
            " lambda_54 (Lambda)             (None, 1, 1, 480)    0           ['swish_166[0][0]']              \n",
            "                                                                                                  \n",
            " conv2d_222 (Conv2D)            (None, 1, 1, 20)     9620        ['lambda_54[0][0]']              \n",
            "                                                                                                  \n",
            " swish_167 (Swish)              (None, 1, 1, 20)     0           ['conv2d_222[0][0]']             \n",
            "                                                                                                  \n",
            " conv2d_223 (Conv2D)            (None, 1, 1, 480)    10080       ['swish_167[0][0]']              \n",
            "                                                                                                  \n",
            " activation_54 (Activation)     (None, 1, 1, 480)    0           ['conv2d_223[0][0]']             \n",
            "                                                                                                  \n",
            " multiply_54 (Multiply)         (None, 10, 10, 480)  0           ['activation_54[0][0]',          \n",
            "                                                                  'swish_166[0][0]']              \n",
            "                                                                                                  \n",
            " conv2d_224 (Conv2D)            (None, 10, 10, 80)   38400       ['multiply_54[0][0]']            \n",
            "                                                                                                  \n",
            " batch_normalization_167 (Batch  (None, 10, 10, 80)  320         ['conv2d_224[0][0]']             \n",
            " Normalization)                                                                                   \n",
            "                                                                                                  \n",
            " drop_connect_29 (DropConnect)  (None, 10, 10, 80)   0           ['batch_normalization_167[0][0]']\n",
            "                                                                                                  \n",
            " add_29 (Add)                   (None, 10, 10, 80)   0           ['drop_connect_29[0][0]',        \n",
            "                                                                  'batch_normalization_164[0][0]']\n",
            "                                                                                                  \n",
            " conv2d_225 (Conv2D)            (None, 10, 10, 480)  38400       ['add_29[0][0]']                 \n",
            "                                                                                                  \n",
            " batch_normalization_168 (Batch  (None, 10, 10, 480)  1920       ['conv2d_225[0][0]']             \n",
            " Normalization)                                                                                   \n",
            "                                                                                                  \n",
            " swish_168 (Swish)              (None, 10, 10, 480)  0           ['batch_normalization_168[0][0]']\n",
            "                                                                                                  \n",
            " depthwise_conv2d_55 (Depthwise  (None, 10, 10, 480)  4320       ['swish_168[0][0]']              \n",
            " Conv2D)                                                                                          \n",
            "                                                                                                  \n",
            " batch_normalization_169 (Batch  (None, 10, 10, 480)  1920       ['depthwise_conv2d_55[0][0]']    \n",
            " Normalization)                                                                                   \n",
            "                                                                                                  \n",
            " swish_169 (Swish)              (None, 10, 10, 480)  0           ['batch_normalization_169[0][0]']\n",
            "                                                                                                  \n",
            " lambda_55 (Lambda)             (None, 1, 1, 480)    0           ['swish_169[0][0]']              \n",
            "                                                                                                  \n",
            " conv2d_226 (Conv2D)            (None, 1, 1, 20)     9620        ['lambda_55[0][0]']              \n",
            "                                                                                                  \n",
            " swish_170 (Swish)              (None, 1, 1, 20)     0           ['conv2d_226[0][0]']             \n",
            "                                                                                                  \n",
            " conv2d_227 (Conv2D)            (None, 1, 1, 480)    10080       ['swish_170[0][0]']              \n",
            "                                                                                                  \n",
            " activation_55 (Activation)     (None, 1, 1, 480)    0           ['conv2d_227[0][0]']             \n",
            "                                                                                                  \n",
            " multiply_55 (Multiply)         (None, 10, 10, 480)  0           ['activation_55[0][0]',          \n",
            "                                                                  'swish_169[0][0]']              \n",
            "                                                                                                  \n",
            " conv2d_228 (Conv2D)            (None, 10, 10, 80)   38400       ['multiply_55[0][0]']            \n",
            "                                                                                                  \n",
            " batch_normalization_170 (Batch  (None, 10, 10, 80)  320         ['conv2d_228[0][0]']             \n",
            " Normalization)                                                                                   \n",
            "                                                                                                  \n",
            " drop_connect_30 (DropConnect)  (None, 10, 10, 80)   0           ['batch_normalization_170[0][0]']\n",
            "                                                                                                  \n",
            " add_30 (Add)                   (None, 10, 10, 80)   0           ['drop_connect_30[0][0]',        \n",
            "                                                                  'add_29[0][0]']                 \n",
            "                                                                                                  \n",
            " conv2d_229 (Conv2D)            (None, 10, 10, 480)  38400       ['add_30[0][0]']                 \n",
            "                                                                                                  \n",
            " batch_normalization_171 (Batch  (None, 10, 10, 480)  1920       ['conv2d_229[0][0]']             \n",
            " Normalization)                                                                                   \n",
            "                                                                                                  \n",
            " swish_171 (Swish)              (None, 10, 10, 480)  0           ['batch_normalization_171[0][0]']\n",
            "                                                                                                  \n",
            " depthwise_conv2d_56 (Depthwise  (None, 10, 10, 480)  12000      ['swish_171[0][0]']              \n",
            " Conv2D)                                                                                          \n",
            "                                                                                                  \n",
            " batch_normalization_172 (Batch  (None, 10, 10, 480)  1920       ['depthwise_conv2d_56[0][0]']    \n",
            " Normalization)                                                                                   \n",
            "                                                                                                  \n",
            " swish_172 (Swish)              (None, 10, 10, 480)  0           ['batch_normalization_172[0][0]']\n",
            "                                                                                                  \n",
            " lambda_56 (Lambda)             (None, 1, 1, 480)    0           ['swish_172[0][0]']              \n",
            "                                                                                                  \n",
            " conv2d_230 (Conv2D)            (None, 1, 1, 20)     9620        ['lambda_56[0][0]']              \n",
            "                                                                                                  \n",
            " swish_173 (Swish)              (None, 1, 1, 20)     0           ['conv2d_230[0][0]']             \n",
            "                                                                                                  \n",
            " conv2d_231 (Conv2D)            (None, 1, 1, 480)    10080       ['swish_173[0][0]']              \n",
            "                                                                                                  \n",
            " activation_56 (Activation)     (None, 1, 1, 480)    0           ['conv2d_231[0][0]']             \n",
            "                                                                                                  \n",
            " multiply_56 (Multiply)         (None, 10, 10, 480)  0           ['activation_56[0][0]',          \n",
            "                                                                  'swish_172[0][0]']              \n",
            "                                                                                                  \n",
            " conv2d_232 (Conv2D)            (None, 10, 10, 112)  53760       ['multiply_56[0][0]']            \n",
            "                                                                                                  \n",
            " batch_normalization_173 (Batch  (None, 10, 10, 112)  448        ['conv2d_232[0][0]']             \n",
            " Normalization)                                                                                   \n",
            "                                                                                                  \n",
            " conv2d_233 (Conv2D)            (None, 10, 10, 672)  75264       ['batch_normalization_173[0][0]']\n",
            "                                                                                                  \n",
            " batch_normalization_174 (Batch  (None, 10, 10, 672)  2688       ['conv2d_233[0][0]']             \n",
            " Normalization)                                                                                   \n",
            "                                                                                                  \n",
            " swish_174 (Swish)              (None, 10, 10, 672)  0           ['batch_normalization_174[0][0]']\n",
            "                                                                                                  \n",
            " depthwise_conv2d_57 (Depthwise  (None, 10, 10, 672)  16800      ['swish_174[0][0]']              \n",
            " Conv2D)                                                                                          \n",
            "                                                                                                  \n",
            " batch_normalization_175 (Batch  (None, 10, 10, 672)  2688       ['depthwise_conv2d_57[0][0]']    \n",
            " Normalization)                                                                                   \n",
            "                                                                                                  \n",
            " swish_175 (Swish)              (None, 10, 10, 672)  0           ['batch_normalization_175[0][0]']\n",
            "                                                                                                  \n",
            " lambda_57 (Lambda)             (None, 1, 1, 672)    0           ['swish_175[0][0]']              \n",
            "                                                                                                  \n",
            " conv2d_234 (Conv2D)            (None, 1, 1, 28)     18844       ['lambda_57[0][0]']              \n",
            "                                                                                                  \n",
            " swish_176 (Swish)              (None, 1, 1, 28)     0           ['conv2d_234[0][0]']             \n",
            "                                                                                                  \n",
            " conv2d_235 (Conv2D)            (None, 1, 1, 672)    19488       ['swish_176[0][0]']              \n",
            "                                                                                                  \n",
            " activation_57 (Activation)     (None, 1, 1, 672)    0           ['conv2d_235[0][0]']             \n",
            "                                                                                                  \n",
            " multiply_57 (Multiply)         (None, 10, 10, 672)  0           ['activation_57[0][0]',          \n",
            "                                                                  'swish_175[0][0]']              \n",
            "                                                                                                  \n",
            " conv2d_236 (Conv2D)            (None, 10, 10, 112)  75264       ['multiply_57[0][0]']            \n",
            "                                                                                                  \n",
            " batch_normalization_176 (Batch  (None, 10, 10, 112)  448        ['conv2d_236[0][0]']             \n",
            " Normalization)                                                                                   \n",
            "                                                                                                  \n",
            " drop_connect_31 (DropConnect)  (None, 10, 10, 112)  0           ['batch_normalization_176[0][0]']\n",
            "                                                                                                  \n",
            " add_31 (Add)                   (None, 10, 10, 112)  0           ['drop_connect_31[0][0]',        \n",
            "                                                                  'batch_normalization_173[0][0]']\n",
            "                                                                                                  \n",
            " conv2d_237 (Conv2D)            (None, 10, 10, 672)  75264       ['add_31[0][0]']                 \n",
            "                                                                                                  \n",
            " batch_normalization_177 (Batch  (None, 10, 10, 672)  2688       ['conv2d_237[0][0]']             \n",
            " Normalization)                                                                                   \n",
            "                                                                                                  \n",
            " swish_177 (Swish)              (None, 10, 10, 672)  0           ['batch_normalization_177[0][0]']\n",
            "                                                                                                  \n",
            " depthwise_conv2d_58 (Depthwise  (None, 10, 10, 672)  16800      ['swish_177[0][0]']              \n",
            " Conv2D)                                                                                          \n",
            "                                                                                                  \n",
            " batch_normalization_178 (Batch  (None, 10, 10, 672)  2688       ['depthwise_conv2d_58[0][0]']    \n",
            " Normalization)                                                                                   \n",
            "                                                                                                  \n",
            " swish_178 (Swish)              (None, 10, 10, 672)  0           ['batch_normalization_178[0][0]']\n",
            "                                                                                                  \n",
            " lambda_58 (Lambda)             (None, 1, 1, 672)    0           ['swish_178[0][0]']              \n",
            "                                                                                                  \n",
            " conv2d_238 (Conv2D)            (None, 1, 1, 28)     18844       ['lambda_58[0][0]']              \n",
            "                                                                                                  \n",
            " swish_179 (Swish)              (None, 1, 1, 28)     0           ['conv2d_238[0][0]']             \n",
            "                                                                                                  \n",
            " conv2d_239 (Conv2D)            (None, 1, 1, 672)    19488       ['swish_179[0][0]']              \n",
            "                                                                                                  \n",
            " activation_58 (Activation)     (None, 1, 1, 672)    0           ['conv2d_239[0][0]']             \n",
            "                                                                                                  \n",
            " multiply_58 (Multiply)         (None, 10, 10, 672)  0           ['activation_58[0][0]',          \n",
            "                                                                  'swish_178[0][0]']              \n",
            "                                                                                                  \n",
            " conv2d_240 (Conv2D)            (None, 10, 10, 112)  75264       ['multiply_58[0][0]']            \n",
            "                                                                                                  \n",
            " batch_normalization_179 (Batch  (None, 10, 10, 112)  448        ['conv2d_240[0][0]']             \n",
            " Normalization)                                                                                   \n",
            "                                                                                                  \n",
            " drop_connect_32 (DropConnect)  (None, 10, 10, 112)  0           ['batch_normalization_179[0][0]']\n",
            "                                                                                                  \n",
            " add_32 (Add)                   (None, 10, 10, 112)  0           ['drop_connect_32[0][0]',        \n",
            "                                                                  'add_31[0][0]']                 \n",
            "                                                                                                  \n",
            " conv2d_241 (Conv2D)            (None, 10, 10, 672)  75264       ['add_32[0][0]']                 \n",
            "                                                                                                  \n",
            " batch_normalization_180 (Batch  (None, 10, 10, 672)  2688       ['conv2d_241[0][0]']             \n",
            " Normalization)                                                                                   \n",
            "                                                                                                  \n",
            " swish_180 (Swish)              (None, 10, 10, 672)  0           ['batch_normalization_180[0][0]']\n",
            "                                                                                                  \n",
            " depthwise_conv2d_59 (Depthwise  (None, 5, 5, 672)   16800       ['swish_180[0][0]']              \n",
            " Conv2D)                                                                                          \n",
            "                                                                                                  \n",
            " batch_normalization_181 (Batch  (None, 5, 5, 672)   2688        ['depthwise_conv2d_59[0][0]']    \n",
            " Normalization)                                                                                   \n",
            "                                                                                                  \n",
            " swish_181 (Swish)              (None, 5, 5, 672)    0           ['batch_normalization_181[0][0]']\n",
            "                                                                                                  \n",
            " lambda_59 (Lambda)             (None, 1, 1, 672)    0           ['swish_181[0][0]']              \n",
            "                                                                                                  \n",
            " conv2d_242 (Conv2D)            (None, 1, 1, 28)     18844       ['lambda_59[0][0]']              \n",
            "                                                                                                  \n",
            " swish_182 (Swish)              (None, 1, 1, 28)     0           ['conv2d_242[0][0]']             \n",
            "                                                                                                  \n",
            " conv2d_243 (Conv2D)            (None, 1, 1, 672)    19488       ['swish_182[0][0]']              \n",
            "                                                                                                  \n",
            " activation_59 (Activation)     (None, 1, 1, 672)    0           ['conv2d_243[0][0]']             \n",
            "                                                                                                  \n",
            " multiply_59 (Multiply)         (None, 5, 5, 672)    0           ['activation_59[0][0]',          \n",
            "                                                                  'swish_181[0][0]']              \n",
            "                                                                                                  \n",
            " conv2d_244 (Conv2D)            (None, 5, 5, 192)    129024      ['multiply_59[0][0]']            \n",
            "                                                                                                  \n",
            " batch_normalization_182 (Batch  (None, 5, 5, 192)   768         ['conv2d_244[0][0]']             \n",
            " Normalization)                                                                                   \n",
            "                                                                                                  \n",
            " conv2d_245 (Conv2D)            (None, 5, 5, 1152)   221184      ['batch_normalization_182[0][0]']\n",
            "                                                                                                  \n",
            " batch_normalization_183 (Batch  (None, 5, 5, 1152)  4608        ['conv2d_245[0][0]']             \n",
            " Normalization)                                                                                   \n",
            "                                                                                                  \n",
            " swish_183 (Swish)              (None, 5, 5, 1152)   0           ['batch_normalization_183[0][0]']\n",
            "                                                                                                  \n",
            " depthwise_conv2d_60 (Depthwise  (None, 5, 5, 1152)  28800       ['swish_183[0][0]']              \n",
            " Conv2D)                                                                                          \n",
            "                                                                                                  \n",
            " batch_normalization_184 (Batch  (None, 5, 5, 1152)  4608        ['depthwise_conv2d_60[0][0]']    \n",
            " Normalization)                                                                                   \n",
            "                                                                                                  \n",
            " swish_184 (Swish)              (None, 5, 5, 1152)   0           ['batch_normalization_184[0][0]']\n",
            "                                                                                                  \n",
            " lambda_60 (Lambda)             (None, 1, 1, 1152)   0           ['swish_184[0][0]']              \n",
            "                                                                                                  \n",
            " conv2d_246 (Conv2D)            (None, 1, 1, 48)     55344       ['lambda_60[0][0]']              \n",
            "                                                                                                  \n",
            " swish_185 (Swish)              (None, 1, 1, 48)     0           ['conv2d_246[0][0]']             \n",
            "                                                                                                  \n",
            " conv2d_247 (Conv2D)            (None, 1, 1, 1152)   56448       ['swish_185[0][0]']              \n",
            "                                                                                                  \n",
            " activation_60 (Activation)     (None, 1, 1, 1152)   0           ['conv2d_247[0][0]']             \n",
            "                                                                                                  \n",
            " multiply_60 (Multiply)         (None, 5, 5, 1152)   0           ['activation_60[0][0]',          \n",
            "                                                                  'swish_184[0][0]']              \n",
            "                                                                                                  \n",
            " conv2d_248 (Conv2D)            (None, 5, 5, 192)    221184      ['multiply_60[0][0]']            \n",
            "                                                                                                  \n",
            " batch_normalization_185 (Batch  (None, 5, 5, 192)   768         ['conv2d_248[0][0]']             \n",
            " Normalization)                                                                                   \n",
            "                                                                                                  \n",
            " drop_connect_33 (DropConnect)  (None, 5, 5, 192)    0           ['batch_normalization_185[0][0]']\n",
            "                                                                                                  \n",
            " add_33 (Add)                   (None, 5, 5, 192)    0           ['drop_connect_33[0][0]',        \n",
            "                                                                  'batch_normalization_182[0][0]']\n",
            "                                                                                                  \n",
            " conv2d_249 (Conv2D)            (None, 5, 5, 1152)   221184      ['add_33[0][0]']                 \n",
            "                                                                                                  \n",
            " batch_normalization_186 (Batch  (None, 5, 5, 1152)  4608        ['conv2d_249[0][0]']             \n",
            " Normalization)                                                                                   \n",
            "                                                                                                  \n",
            " swish_186 (Swish)              (None, 5, 5, 1152)   0           ['batch_normalization_186[0][0]']\n",
            "                                                                                                  \n",
            " depthwise_conv2d_61 (Depthwise  (None, 5, 5, 1152)  28800       ['swish_186[0][0]']              \n",
            " Conv2D)                                                                                          \n",
            "                                                                                                  \n",
            " batch_normalization_187 (Batch  (None, 5, 5, 1152)  4608        ['depthwise_conv2d_61[0][0]']    \n",
            " Normalization)                                                                                   \n",
            "                                                                                                  \n",
            " swish_187 (Swish)              (None, 5, 5, 1152)   0           ['batch_normalization_187[0][0]']\n",
            "                                                                                                  \n",
            " lambda_61 (Lambda)             (None, 1, 1, 1152)   0           ['swish_187[0][0]']              \n",
            "                                                                                                  \n",
            " conv2d_250 (Conv2D)            (None, 1, 1, 48)     55344       ['lambda_61[0][0]']              \n",
            "                                                                                                  \n",
            " swish_188 (Swish)              (None, 1, 1, 48)     0           ['conv2d_250[0][0]']             \n",
            "                                                                                                  \n",
            " conv2d_251 (Conv2D)            (None, 1, 1, 1152)   56448       ['swish_188[0][0]']              \n",
            "                                                                                                  \n",
            " activation_61 (Activation)     (None, 1, 1, 1152)   0           ['conv2d_251[0][0]']             \n",
            "                                                                                                  \n",
            " multiply_61 (Multiply)         (None, 5, 5, 1152)   0           ['activation_61[0][0]',          \n",
            "                                                                  'swish_187[0][0]']              \n",
            "                                                                                                  \n",
            " conv2d_252 (Conv2D)            (None, 5, 5, 192)    221184      ['multiply_61[0][0]']            \n",
            "                                                                                                  \n",
            " batch_normalization_188 (Batch  (None, 5, 5, 192)   768         ['conv2d_252[0][0]']             \n",
            " Normalization)                                                                                   \n",
            "                                                                                                  \n",
            " drop_connect_34 (DropConnect)  (None, 5, 5, 192)    0           ['batch_normalization_188[0][0]']\n",
            "                                                                                                  \n",
            " add_34 (Add)                   (None, 5, 5, 192)    0           ['drop_connect_34[0][0]',        \n",
            "                                                                  'add_33[0][0]']                 \n",
            "                                                                                                  \n",
            " conv2d_253 (Conv2D)            (None, 5, 5, 1152)   221184      ['add_34[0][0]']                 \n",
            "                                                                                                  \n",
            " batch_normalization_189 (Batch  (None, 5, 5, 1152)  4608        ['conv2d_253[0][0]']             \n",
            " Normalization)                                                                                   \n",
            "                                                                                                  \n",
            " swish_189 (Swish)              (None, 5, 5, 1152)   0           ['batch_normalization_189[0][0]']\n",
            "                                                                                                  \n",
            " depthwise_conv2d_62 (Depthwise  (None, 5, 5, 1152)  28800       ['swish_189[0][0]']              \n",
            " Conv2D)                                                                                          \n",
            "                                                                                                  \n",
            " batch_normalization_190 (Batch  (None, 5, 5, 1152)  4608        ['depthwise_conv2d_62[0][0]']    \n",
            " Normalization)                                                                                   \n",
            "                                                                                                  \n",
            " swish_190 (Swish)              (None, 5, 5, 1152)   0           ['batch_normalization_190[0][0]']\n",
            "                                                                                                  \n",
            " lambda_62 (Lambda)             (None, 1, 1, 1152)   0           ['swish_190[0][0]']              \n",
            "                                                                                                  \n",
            " conv2d_254 (Conv2D)            (None, 1, 1, 48)     55344       ['lambda_62[0][0]']              \n",
            "                                                                                                  \n",
            " swish_191 (Swish)              (None, 1, 1, 48)     0           ['conv2d_254[0][0]']             \n",
            "                                                                                                  \n",
            " conv2d_255 (Conv2D)            (None, 1, 1, 1152)   56448       ['swish_191[0][0]']              \n",
            "                                                                                                  \n",
            " activation_62 (Activation)     (None, 1, 1, 1152)   0           ['conv2d_255[0][0]']             \n",
            "                                                                                                  \n",
            " multiply_62 (Multiply)         (None, 5, 5, 1152)   0           ['activation_62[0][0]',          \n",
            "                                                                  'swish_190[0][0]']              \n",
            "                                                                                                  \n",
            " conv2d_256 (Conv2D)            (None, 5, 5, 192)    221184      ['multiply_62[0][0]']            \n",
            "                                                                                                  \n",
            " batch_normalization_191 (Batch  (None, 5, 5, 192)   768         ['conv2d_256[0][0]']             \n",
            " Normalization)                                                                                   \n",
            "                                                                                                  \n",
            " drop_connect_35 (DropConnect)  (None, 5, 5, 192)    0           ['batch_normalization_191[0][0]']\n",
            "                                                                                                  \n",
            " add_35 (Add)                   (None, 5, 5, 192)    0           ['drop_connect_35[0][0]',        \n",
            "                                                                  'add_34[0][0]']                 \n",
            "                                                                                                  \n",
            " conv2d_257 (Conv2D)            (None, 5, 5, 1152)   221184      ['add_35[0][0]']                 \n",
            "                                                                                                  \n",
            " batch_normalization_192 (Batch  (None, 5, 5, 1152)  4608        ['conv2d_257[0][0]']             \n",
            " Normalization)                                                                                   \n",
            "                                                                                                  \n",
            " swish_192 (Swish)              (None, 5, 5, 1152)   0           ['batch_normalization_192[0][0]']\n",
            "                                                                                                  \n",
            " depthwise_conv2d_63 (Depthwise  (None, 5, 5, 1152)  10368       ['swish_192[0][0]']              \n",
            " Conv2D)                                                                                          \n",
            "                                                                                                  \n",
            " batch_normalization_193 (Batch  (None, 5, 5, 1152)  4608        ['depthwise_conv2d_63[0][0]']    \n",
            " Normalization)                                                                                   \n",
            "                                                                                                  \n",
            " swish_193 (Swish)              (None, 5, 5, 1152)   0           ['batch_normalization_193[0][0]']\n",
            "                                                                                                  \n",
            " lambda_63 (Lambda)             (None, 1, 1, 1152)   0           ['swish_193[0][0]']              \n",
            "                                                                                                  \n",
            " conv2d_258 (Conv2D)            (None, 1, 1, 48)     55344       ['lambda_63[0][0]']              \n",
            "                                                                                                  \n",
            " swish_194 (Swish)              (None, 1, 1, 48)     0           ['conv2d_258[0][0]']             \n",
            "                                                                                                  \n",
            " conv2d_259 (Conv2D)            (None, 1, 1, 1152)   56448       ['swish_194[0][0]']              \n",
            "                                                                                                  \n",
            " activation_63 (Activation)     (None, 1, 1, 1152)   0           ['conv2d_259[0][0]']             \n",
            "                                                                                                  \n",
            " multiply_63 (Multiply)         (None, 5, 5, 1152)   0           ['activation_63[0][0]',          \n",
            "                                                                  'swish_193[0][0]']              \n",
            "                                                                                                  \n",
            " conv2d_260 (Conv2D)            (None, 5, 5, 320)    368640      ['multiply_63[0][0]']            \n",
            "                                                                                                  \n",
            " batch_normalization_194 (Batch  (None, 5, 5, 320)   1280        ['conv2d_260[0][0]']             \n",
            " Normalization)                                                                                   \n",
            "                                                                                                  \n",
            " conv2d_261 (Conv2D)            (None, 5, 5, 1280)   409600      ['batch_normalization_194[0][0]']\n",
            "                                                                                                  \n",
            " batch_normalization_195 (Batch  (None, 5, 5, 1280)  5120        ['conv2d_261[0][0]']             \n",
            " Normalization)                                                                                   \n",
            "                                                                                                  \n",
            " swish_195 (Swish)              (None, 5, 5, 1280)   0           ['batch_normalization_195[0][0]']\n",
            "                                                                                                  \n",
            "==================================================================================================\n",
            "Total params: 4,049,564\n",
            "Trainable params: 4,007,548\n",
            "Non-trainable params: 42,016\n",
…
